neupan_ros/example/gazebo_limo/pretrain_berrybolt/model_5000.pth (torch, 25013 bytes, 18 tensors)

MLP.0.weight f4 [32, 2]
00000000: 21f1 74be 1e67 0dbf 6436 cb3e e476 473e
00000010: f835 b3be 54ef 4b3e d89c a23e 19b4 45bd
00000020: 43c6 8fbe 5d31 693e c2e2 5cbe 9793 083d
00000030: 1a59 a03c 2a9d a5be 7c95 5b3e 1c6f b5bd
00000040: d881 1dbe 8699 143f 1682 423e 4654 e23e
00000050: fd73 f03d 2c5a de3d 4c81 4c3e fda9 b13e
00000060: 8f21 b6be dbf6 a4be 7616 ce3e 1567 88bd
00000070: 00b2 93be e193 06be 435e 643e 5a96 82be
00000080: 8e5f e73e 7ec6 91be 668a 1d3e 2236 dcbe
00000090: bd96 e83d 5428 f53e e5fc e73d 4e69 04be
000000a0: d7d0 9f3d c946 7d3e 3e73 393c 792c ecbe
000000b0: 16e4 c63d 7a0e 963c 89da 82bd d05c 053d
000000c0: 085b ca3e e639 94be 79c8 a03e 8c2d 863e
000000d0: f1b5 a7be 0808 03be 05b7 273d c2f0 64bc
000000e0: e169 023e 6e1f c5bd 7134 a13e 4238 ff3e
000000f0: 660a 9abe 1473 a4be 3c43 a53e 61c4 ae3d
-0.23920108 -0.5523547 0.39689934 0.19478947 -0.35002112 0.19915515 0.31760287 -0.048267458
-0.2808095 0.22772737 -0.21570876 0.033343878 0.019573737 -0.3234647 0.21443743 -0.08859083
-0.15381563 0.5804676 0.18994936 0.4420492 0.11740873 0.10857043 0.19971198 0.34700003
-0.35572478 -0.32219586 0.4025151 -0.06660286 -0.2884674 -0.13142349 0.22301583 -0.25505334
0.4519009 -0.2847175 0.15384826 -0.4301005 0.11356876 0.4788233 0.11327533 -0.12930796
0.07803505 0.24734034 0.01131898 -0.4612768 0.09711473 0.01831745 -0.063893385 0.032559216
0.39522576 -0.28950423 0.31402948 0.26206625 -0.32755998 -0.12796032 0.040946025 -0.013973417
0.12735702 -0.09625135 0.31485322 0.4984761 -0.30086058 -0.32119048 0.32277858 0.0853355

MLP.0.bias f4 [32]
00000000: 8398 9e3c b668 0d3d 77bd fcbd 1ce0 4bbe
00000010: 69af 3a3d dd9f 2f3d f440 0bbe dfde 863e
00000020: cafe b83d f9ee 773d 64da 6b3c a175 363d
00000030: 6a89 5b3e 5ddf 89bd 8dc6 0e3e 4af1 0f3d
00000040: f840 24bd 52bf 043e 07ac 50be 8226 5ebe
00000050: bbb1 c4bd 5b74 f2bd 1c0c c3bc d8d2 54bd
00000060: d02d 363e 1e29 0a3e 8fc5 06be 9cf3 0f3c
00000070: ca8b cb3d 1d21 0bbd 685a 14bd 908e 6f3d
0.019359833 0.03452369 -0.12340825 -0.1990971 0.04557744 0.042877067 -0.13598996 0.26341912
0.09032972 0.060530636 0.01439533 0.044545773 0.21439138 -0.06732056 0.13942929 0.03514222
-0.04010102 0.12963608 -0.20378123 -0.21694377 -0.09604212 -0.11838599 -0.023809485 -0.05195889
0.17790914 0.13492247 -0.131613 0.008786108 0.09938772 -0.033967126 -0.03621903 0.058485568

MLP.1.weight f4 [32]
00000000: 02a7 153f 7fd9 cf3e c5a8 023f 80e2 183f
00000010: 8c69 de3e 384f da3e 9afd 1a3f 5bf7 e23e
00000020: ce71 1f3f 3d90 0e3f abec b43d 0f06 003f
00000030: 34f7 fb3e c367 143f 99d7 123f 0554 d33e
00000040: f8f5 a73e 3a63 243f 3c82 2d3f b850 183f
00000050: 5837 f03e c08d 2a3f f49c da3d ce3a 993e
00000060: fafc cb3e 73ff 043f a997 233f 33e8 c1b7
00000070: db7c 663e a918 183f 0e74 073f bd6a e23e
0.5845796 0.40595624 0.5103877 0.5972061 0.434399 0.42638564 0.60543215 0.44329342
0.6228303 0.5568884 0.08834203 0.50009245 0.4921204 0.5797083 0.57360226 0.4127504
0.32804847 0.6421391 0.67776847 0.5949817 0.46917224 0.66622543 0.10674468 0.29927677
0.39841443 0.51952285 0.6390329 -2.3115519e-05 0.22508566 0.5941263 0.5291146 0.4422206

MLP.1.bias f4 [32]
00000000: 1f24 1f3b 144c 98bb 322d 2d3b 3290 ce3b
00000010: 0b6b b03b ff28 af3c 1581 9dba 3018 f5bb
00000020: 6ac9 163c 07d0 c13c b04e 76bc 4bfa 0abc
00000030: dd3b 3e3d 987b 0abc 028d ed3c 4c88 58bb
00000040: f0b1 8cba 14b4 eb3c e1e6 bebc 3931 953b
00000050: a951 593b 059a 3cbc 9cc8 10bd 4551 49bc
00000060: c8d6 15bc 3c30 4e3c 96f9 f63c 349f 0cb5
00000070: 0e73 bb3c 6426 0fbb 9d1a 29bc 7d0d 103c
0.0024283004 -0.004647741 0.0026424644 0.0063038105 0.0053838543 0.021381853 -0.0012016619 -0.00747969
0.009203294 0.023658765 -0.015033409 -0.008482526 0.04644381 -0.008452319 0.028997902 -0.0033040224
-0.0010734182 0.028772391 -0.023303451 0.004552987 0.0033160246 -0.0115113305 -0.035347566 -0.012287443
-0.009145446 0.012584742 0.030148309 -5.2385735e-07 0.02288201 -0.002184295 -0.0103212865 0.008792278

MLP.3.weight f4 [32, 32]
00000000: 3707 2bbd 4a7c 9b3c 0135 283d 8ba9 113d
00000010: 82e3 c4bb 5c91 103d 6958 3a3d 4f97 adbb
00000020: 97bb 4d3d 59dc e2bd caec c73a eff5 393d
00000030: 0e71 babc a0af 9b3d 40dc f0bc fe17 2e3d
00000040: c729 7a3d bd4b a93d ec04 43bc eb4c 2bbb
00000050: fa0a 2c3d 3b83 e83d 9ce8 043b 9367 24ba
00000060: 9fac 1ebd 43b0 04bd e120 52bd 0554 7db6
00000070: 8afc 133c d2f0 60bd c62d a13c e8fc 18bc
00000080: 1885 9a3d fae5 503d 748f abba 94ad 2c3d
00000090: 5255 69bb 3f84 61bb 0a83 9a3c da93 3ebc
000000a0: f6ff 7b3d 3446 6a3d faf8 293b 5125 a33d
000000b0: 8d9a 193d 6e6a a03d ac8f d4bb a006 b6bc
000000c0: 9339 a53d 7d8c 20bd 8910 4e3d bd25 313d
000000d0: 5132 11bd 46ed 893d 7f21 363b 48b5 53bc
000000e0: 2809 913d 14ff 29bd 461f 65bd b662 2db7
000000f0: ddd3 c4b9 0a4d cf3d e3b6 03bd 6b7e 233d
00000100: 0fc0 ebbb feae 73bb 8f4f 20bd a951 06bd
00000110: 66e8 f3bb 6cc8 553a f681 93bd c504 a13d
00000120: f968 1b3d 7c6a d83c 8dd6 cbb9 27a3 963c
00000130: b151 fd3c 5819 08bd 9db2 db3c 2722 733c
00000140: 8cba 12bc 2dc3 823d 85e8 4abd 9918 9ebd
00000150: 6bd1 1ebd 5275 9abd 56d3 0fbc 602f 91bc
00000160: 20c5 4c3d 5f08 523d 70df 26bd 5076 e3b6
00000170: 58aa be3c c36e fdbb 208c 41bc fdfb a53c
00000180: d0da 0cbe dcf7 b4bd f4a3 0c3e b1c7 263d
00000190: 997e 033c d4da 99bd c3b0 e13d b413 babd
000001a0: 4951 373e 37f9 083e e41f 48bd e4c4 b0bc
000001b0: 7904 e1bd 2cea afbd 5285 9dbd 4f9a 76bc
000001c0: cf3c dabd 691b 79bd e5c1 2e3e 1c42 26bd
000001d0: ce50 da3d 94ac d8bc b108 ae3c 2fa6 343d
000001e0: 6929 efbd ff87 bc3d 27df 37bd 8c4f 35b7
000001f0: 52a2 1fbc fa3c 43bd f576 c9bd 3831 323d
00000200: 0ca5 12bd 821a b63d 31d7 a13d fef0 67bb
00000210: f641 b0bd 92a5 04be 807c edbd 4448 82bc
00000220: 3e69 fabd 61a6 283d cfdf 8c3c 7a54 babd
00000230: b05a b0bd 3ac4 f83d 47b1 ba3c 55ef 863d
00000240: 8fa4 fc3d 27b8 f83d f601 e33d 36e8 ca3d
00000250: 4009 a43d 42f2 523d 202c 413b 6074 4cbd
00000260: d425 813c 9931 5fbd 62af 88bb 9480 4437
00000270: 21d8 533d 6391 1bbd 249f 853d 1a24 cf3d
00000280: 040c bbba e2bf 373d d4ca 1cbd e82e f33d
00000290: 25d9 6cbd 2b7a c7bc c323 0e3d c768 debc
000002a0: 50fe adbc c40c 08bc 0969 cf3c 2216 2a3c
000002b0: 0041 91bd 4dea 993d a94f b4bd 6d2e 3e3b
000002c0: 6624 553d f431 5d3b 350e 2e3c 93a0 903d
000002d0: c3c5 6c3c 366f a03c c115 153d afe4 e7bb
000002e0: 6a70 693c bdaf bc3b 2f40 41bd 76af 58b7
000002f0: a234 59bc 4496 c73c dc11 40bd 87ed 653c
00000300: 2984 8bbc 01b0 493c b3bc 1ebd e926 70bd
00000310: 616a 8dbc c8b6 0bbc 3fb7 cebd e453 a03d
00000320: 445d 623d cd2e bfba c6b7 d03a 974e 683d
00000330: 7e15 fc3c d68b c3bc 43a8 c23c 0f2c 423d
00000340: df11 1abd a919 153e 5310 febd bb64 7fbd
00000350: 8067 91bc 5851 9dbc 0cd3 a1bb eaf8 b6bc
00000360: 9028 fc3c d8a6 763d 2741 18bd f842 2b36
00000370: d867 083d 487f 7fbc 435d 9bbb 64ce b33c
00000380: 2008 093c fbcb 123c f382 853b d0b5 29bd
00000390: 7122 013d 0f5b 8d3b 650b 82bd 88cf 543d
000003a0: 03fa 523b 2b10 803c d78b 8639 d5f6 463c
000003b0: 137e ed3c c59f 08bc a304 8d3c 0414 dc3c
000003c0: 1839 2e3c dc08 683d b189 89bd 1636 6bbd
000003d0: 3dcc 01bd 2c8c 51bd 1ea4 46bb d0ad 24bc
000003e0: 635e 473d 9096 153d ecb3 c8bc fa70 feb5
000003f0: 7f40 633c 3fe1 97bc 5e5d 8fbc 2606 483c
-0.041754927 0.018980164 0.041066173 0.03556208 -0.0060085664 0.035294876 0.04549447 -0.0052975784
0.050227728 -0.11077184 0.0015253064 0.045400556 -0.022758987 0.07601857 -0.029401898 0.04250335
0.061075 0.08266399 -0.011903029 -0.0026138376 0.042002656 0.11353155 0.0020280248 -0.0006271537
-0.038738843 -0.03239466 -0.051300887 -3.7748844e-06 0.009032378 -0.054917164 0.019675147 -0.009337641
0.07544917 0.051000573 -0.0013089017 0.042157724 -0.0035603833 -0.00344111 0.018861312 -0.01163193
0.0615234 0.057195857 0.0025935755 0.07966102 0.037500907 0.078328 -0.0064868536 -0.022219956
0.08067622 -0.03919648 0.050308738 0.04324888 -0.035448376 0.067347094 0.0027790961 -0.012921639
0.070818245 -0.041503027 -0.055938028 -1.03345865e-05 -0.00037541884 0.10122116 -0.032156836 0.039915483
-0.007194526 -0.003718316 -0.039138373 -0.03279272 -0.0074434755 0.00081551704 -0.072025225 0.07862238
0.037941907 0.026417963 -0.0003887903 0.018388344 0.030922743 -0.033227295 0.026818568 0.0148396855
-0.008955609 0.06384883 -0.049538154 -0.077195354 -0.038773935 -0.07541908 -0.008778414 -0.017722785
0.04999268 0.051277515 -0.04074043 -6.7789006e-06 0.023274586 -0.007734151 -0.011813194 0.020261759
-0.13755345 -0.08836338 0.13734418 0.040717784 0.008025789 -0.07512441 0.11020043 -0.09085789
0.17902102 0.13376318 -0.04885854 -0.02157826 -0.10987181 -0.085895866 -0.076914445 -0.0150514385
-0.106561296 -0.060817156 0.17066152 -0.04059039 0.106599435 -0.02644948 0.021244379 0.044103798
-0.1167782 0.09205627 -0.04489055 -1.0806962e-05 -0.00974329 -0.047665574 -0.098371424 0.04350397
-0.035801932 0.08891775 0.07902373 -0.0035391445 -0.08606331 -0.12953785 -0.11596012 -0.0159036
-0.122271046 0.041174296 0.017196564 -0.09098144 -0.08611047 0.12146802 0.02278961 0.06588618
0.123360746 0.12144499 0.110843584 0.09907572 0.08009577 0.051500566 0.0029475763 -0.04991567
0.015765108 -0.05449066 -0.004171298 1.1712447e-05 0.05171979 -0.03798045 0.06524494 0.10114308
-0.0014270549 0.044860728 -0.03827937 0.11874181 -0.057824273 -0.024350246 0.034702074 -0.027149571
-0.02123943 -0.008303825 0.02531864 0.010381253 -0.07092476 0.075153925 -0.088042565 0.002901937
0.052036665 0.0033751698 0.010623504 0.07061877 0.014451447 0.01958428 0.0363977 -0.0070768218
0.014247993 0.0057582543 -0.04718035 -1.2915456e-05 -0.013257178 0.024363644 -0.046892032 0.014033682
-0.017030792 0.012310029 -0.038754176 -0.058630858 -0.01726264 -0.008527465 -0.10093545 0.07828501
0.055264726 -0.0014586091 0.0015923909 0.056715574 0.030771967 -0.02387039 0.023761874 0.0474053
-0.0376147 0.1456057 -0.12405457 -0.062351923 -0.017749548 -0.019203827 -0.004938489 -0.022335488
0.03078106 0.06021771 -0.03717151 2.5519967e-06 0.033302158 -0.015594311 -0.0047413423 0.021949
0.008363754 0.008959766 0.0040744483 -0.041433156 0.031526987 0.0043138335 -0.063498296 0.05195573
0.0032192476 0.01563271 0.0002566266 0.01214381 0.028990781 -0.008338873 0.017214125 0.026865013
0.010633729 0.056649074 -0.06715716 -0.057424627 -0.031688917 -0.05115907 -0.0030310224 -0.010051206
0.048674 0.03652054 -0.024499856 -1.8957355e-06 0.013870358 -0.018540023 -0.017500576 0.012208497

MLP.3.bias f4 [32]
00000000: 8549 573d 12d7 f1bb 71c8 993d e2b2 8b3a
00000010: 65d8 6cbd 01cb 013c a962 80bd 59aa 06bc
00000020: fe9b 9dbd 2d0a 7cbd a88f b8bc b395 1a3e
00000030: 5495 8a3d f9f2 c4bd 831d 13bd 71ee 373d
00000040: 5624 a4bd 86d0 243e e681 8f3d c581 a53c
00000050: 31bd 66bd 2052 963d e856 df3d 9de3 d43d
00000060: 9d0f aabd 6e6c ee3c 2fdb 223e 09e7 5abc
00000070: 61a5 a3bc edc5 bb3c 0f33 523d 22f8 1abc
0.052560348 -0.0073803747 0.07508934 0.001065817 -0.057823557 0.007921935 -0.06268818 -0.008219325
-0.07695769 -0.061533142 -0.022529438 0.15096168 0.06766763 -0.09616656 -0.035916816 0.04490513
-0.08014743 0.1609517 0.07007198 0.02020348 -0.05633277 0.07339883 0.10905248 0.10394976
-0.08303759 0.029104438 0.15903924 -0.013360747 -0.01997632 0.022921527 0.051318225 -0.009458574

MLP.5.weight f4 [32, 32]
00000000: 369e d6b9 c60e 473d 7e8f 6a3d 8ade be3d
00000010: ff98 c93d 3e93 aa3d 604d d13a fd19 be3c
00000020: b837 bcbd c3ec febb 484c 21bd 70bb 87bd
00000030: 7338 00bd 9bc5 5cbd f4d7 ab3d ba65 653b
00000040: cec7 793d 9cbe 0f3d 97e2 4abc f29b 043d
00000050: 504e 42bb 5ee4 16bc 7839 74bd ba4e 0b3d
00000060: bfcb 983b 5378 d0bc f888 92bd 7587 bdbd
00000070: 49d2 e53d ec0c be3c 0d6b 8cbd 9a3c 89bc
00000080: 4491 9ebd 8ed3 503c a5a9 07bc 9114 013e
00000090: c567 dbbd 1ceb 89bc 020d e9bc 20bc 3dbc
000000a0: 72e6 e5bc fd43 013e 1005 ff3c 1d0f 94bd
000000b0: 9dd5 453d 49c1 6bbc b01e c0bd 9a0e 15be
000000c0: 5db3 d13c 7f2e 95bc cc49 c6bb 07ff 26be
000000d0: fe17 bfbd d2a4 1ebe 495a 55bd 801e 9c3d
000000e0: fb97 cbbd a6b9 ea3b bc63 053d aac2 75bd
000000f0: 72d2 03ba fc0f 973b dc5a 80bc ed45 933c
00000100: 9eb6 953c 425f 03bc 7edc 893b 6e2f 8cbd
00000110: 304f dcbd f173 48bd 2a70 febc 4d52 703c
00000120: b71e 1e3c 584d bf3d 4f5f 243c 2048 b33d
00000130: 6e5e 9ebd b893 b83d 6607 213d 57b0 1c3e
00000140: 737b 5ebd c301 693d 6828 ac3d dba9 a5bd
00000150: ca56 3fbd aa8f 60bd 5867 fdbc db80 9dbd
00000160: 948d f83b 1c71 f33c dfce ccbc 5ac4 0bbe
00000170: edba a6bd 5301 dc3b 2486 b13c 8606 0bbd
00000180: eb71 31bd 205a d1bd b27c ccbc d417 44bd
00000190: 9fa3 d23c 36d1 7dbd 8b72 35bc fef5 00bd
000001a0: abc1 78bd 2276 033e 39fd 7d3d 96b8 ca3b
000001b0: 7ad9 73bb e716 983d 6061 83bd 65b3 ccbc
000001c0: a808 dfbc 1b5c 8ebd bdc0 c53c 6188 7bbd
000001d0: 976f 46bc 71f4 d43b b0bc b5bd 8830 f23d
000001e0: bed8 1f3d c774 2b3d a722 cc3c 4a1d 8d3d
000001f0: f8c7 bbbd 86db 3e3c fb22 cbbd 8787 0e3d
00000200: 16b0 fe3d f1b2 1dbe c7ae fdbd cd35 6fbd
00000210: 13d4 303d 5957 243d 48bd aebd 6d04 02bd
00000220: 1d58 c73a c117 82bd 0ffe 8cbc 1b13 c5bd
00000230: 2a65 683d 0ee5 0ebd 7e5b fabd a1e6 8bbd
00000240: 325c 57bd d3ec 09be 5ad3 9d3c 7a49 733d
00000250: a757 c23d 12a7 593d 22f4 9ebd 0ffc 813d
00000260: 409d 89bd 52dd 86bd f8a5 bfbc 9139 a0bd
00000270: 6d96 663c b85d 14be 9690 4e3d 5e4f aebc
00000280: 6713 b7bd af9d c23c 4b69 7f3d cd0a 84bc
00000290: 07b3 36bd d7ab 8dbc 9e7a 9d3d d20b 8d3d
000002a0: c8e0 8c3d b360 3ebc e960 13bb 8c79 87bb
000002b0: 2f12 44bd 85f5 cd3d c830 d8bb 37c7 e6bd
000002c0: e129 7fbd e26d e1bc c9cb 8e3d 783b da3d
000002d0: 7549 e6bd 6550 edbd d9c0 193d 01cd 4abc
000002e0: 03fd b93c 595a 0cbc 289c 9b3b cd5b 31be
000002f0: b967 f93b 8094 b43c 51ec a0bc 1728 a83c
00000300: af7e acbc 4fab b7ba 1954 55bd 52ae 133e
00000310: 03dd 39bd 5fec f1bc 9bfa 023c 732b be3a
00000320: ead8 75bd 8613 1fbd 78e0 613d 0b07 8b3d
00000330: 9044 2ebd 08eb 2ebd 8afa ce3b c665 053d
00000340: 05cf 25bd e9c7 d23c da3c 90bb b1f6 e43c
00000350: 6896 84bc 4ba2 243d 9f3f 963c 59ab 52bd
00000360: 3432 873c a773 553c 1cc8 bf3d 10af 9dbd
00000370: bd6e e83a 75d5 57bd df02 ac3d 0ec5 983b
00000380: 9b2d c83c 85d6 463d d30b 063d 3f6d 383b
00000390: d0dd ac3d 57cb 5ebb f11a 7ebc b939 adbb
000003a0: 4003 d93c da0f 963c 7938 383c 39e2 893c
000003b0: fda1 e73c 3873 903b 5a57 a7bd 443c 893d
000003c0: 7cb6 37bd 1198 2bbc b6cb 9ebd acae 4d3d
000003d0: 9f59 81bd 2b41 c73d 99e6 edbc 1b82 32bd
000003e0: cb36 8aba 876f d9bc 1e44 2dbd ff3f 65bd
000003f0: 0cbb 413c 7454 4b3d 968f 7e3d 3b6a fe3c
-0.00040935137 0.048598073 0.05726575 0.0931979 0.09843635 0.083288655 0.0015968494 0.023205752
-0.09190315 -0.007779689 -0.039379388 -0.06627548 -0.031303834 -0.05389939 0.08390799 0.003500326
0.060981564 0.03509389 -0.012383125 0.032375284 -0.0029648729 -0.00920972 -0.05962512 0.034010626
0.0046629603 -0.025448 -0.07155031 -0.09254352 0.11221749 0.023199521 -0.06856356 -0.01675253
-0.07742551 0.012745751 -0.0082801925 0.12605502 -0.10713152 -0.016835742 -0.028448585 -0.011580497
-0.028063986 0.12623592 0.031130344 -0.07229445 0.04829942 -0.0143893445 -0.09380853 -0.14556351
0.025598222 -0.018210648 -0.0060512777 -0.16308223 -0.09330748 -0.15492561 -0.052088056 0.07623005
-0.09941097 0.0071632443 0.032565817 -0.0600001 -0.0005028612 0.00461006 -0.015668325 0.01797768
0.018275555 -0.008018317 0.004207193 -0.06844984 -0.10757291 -0.048938695 -0.031059343 0.01466806
0.009650878 0.09340924 0.010032489 0.08753991 -0.07732855 0.0901255 0.039313696 0.15301643
-0.05431695 0.056886446 0.084061444 -0.08089038 -0.046713628 -0.05482451 -0.030933067 -0.07690593
0.007585237 0.02971702 -0.025000988 -0.13649121 -0.08141122 0.006714025 0.021670409 -0.033941768
-0.04332153 -0.10222268 -0.024961803 -0.047874287 0.025712786 -0.061967097 -0.011074672 -0.031484596
-0.06073157 0.12838033 0.06200907 0.006186555 -0.0037208484 0.07426243 -0.06415057 -0.024987886
-0.027225807 -0.069511615 0.024139756 -0.061409358 -0.012111566 0.0064988662 -0.0887388 0.11825663
0.03902506 0.041859414 0.024918867 0.06890352 -0.091690004 0.011649018 -0.09918781 0.034797218
0.124359295 -0.15400292 -0.12386852 -0.058400918 0.043171 0.040122364 -0.08532196 -0.031742502
0.0015208755 -0.06352187 -0.017210988 -0.09622785 0.056737103 -0.034886412 -0.12224482 -0.06831098
-0.05257816 -0.13469248 0.01926582 0.059396245 0.094893746 0.053137846 -0.077614084 0.063469045
-0.06719446 -0.06585182 -0.02339457 -0.0782348 0.01407395 -0.14488876 0.050430857 -0.02127808
-0.089392476 0.02375683 0.062356275 -0.016118431 -0.044604328 -0.017293854 0.07689403 0.0688702
0.06878811 -0.011619735 -0.0022488183 -0.0041343626 -0.047868904 0.10056595 -0.006597612 -0.11268466
-0.0622958 -0.027518217 0.06972463 0.10655874 -0.112444796 -0.115876 0.03753743 -0.012377978
0.022703653 -0.008566462 0.00474884 -0.17320175 0.0076112417 0.022043467 -0.019643934 0.020526929
-0.021056501 -0.0014012846 -0.052082155 0.14421967 -0.04537679 -0.029531656 0.007994319 0.0014508798
-0.06002132 -0.03883698 0.05514571 0.06788453 -0.042545855 -0.042704612 0.0063164877 0.03256776
-0.040480632 0.02573009 -0.0044017853 0.027949663 -0.016185 0.040193837 0.018340884 -0.05143294
0.01650343 0.013028062 0.0936434 -0.07699406 0.0017733198 -0.052693803 0.08398985 0.0046621626
0.024435809 0.048544426 0.03272612 0.0028141288 0.08440745 -0.0033995712 -0.015509353 -0.005286422
0.026490808 0.018318105 0.011243933 0.016831504 0.028275484 0.0044082664 -0.08170958 0.06700948
-0.044851765 -0.010473267 -0.077536985 0.05021541 -0.06315922 0.09729227 -0.029040622 -0.04358111
-0.0010544894 -0.026542438 -0.04230129 -0.055969235 0.011824381 0.049641088 0.062148653 0.031056514

MLP.5.bias f4 [32]
00000000: 3787 6ebd 97da a43d f72b a23c 4444 9b3d
00000010: 9ced a23d 4f1b 363c 6993 48bd b91e 06be
00000020: 7212 953d fbbc f1bc f1da 733c b629 1dbe
00000030: 9d84 b33d c2a9 e53c bbae 373b 7c8e ccbd
00000040: 188e a93c e61f a13d bb1a 73bd c1ae 52bc
00000050: c9f9 fe3b b411 1abe 64aa 213d c010 a23d
00000060: cbe6 8dbd c90f 1cbe 6368 4e3c 1771 b03a
00000070: 3e9e 83bc a190 f0bd 260e 633d a2ab 53bd
-0.05823442 0.08049505 0.019796355 0.0758138 0.07955477 0.011114909 -0.048968706 -0.13097657
0.07278909 -0.029509058 0.014883743 -0.15347943 0.08765528 0.028035048 0.0028027731 -0.09988114
0.020697638 0.07867412 -0.059351664 -0.012859047 0.0077812416 -0.15045816 0.039469138 0.07913351
-0.06928786 -0.15240397 0.01259813 0.0013461438 -0.016066667 -0.11746336 0.055433415 -0.051677354

MLP.6.weight f4 [32]
00000000: 6899 f93e 5662 243f cead a53e d40c f23e
00000010: cc51 073f 674f 0b3f fd38 c93e 41eb 053f
00000020: 075e 303f 80fe 133f d11c b23e 3acc ef3e
00000030: fea3 043f 1c75 f63e 73fb fe3e 8a99 db3e
00000040: 7a7c 023f a55b 1a3f 2672 fa3e c14e 063f
00000050: a08d de3e 105d f73e 3b0b 103f dc04 f53e
00000060: a76b c13e 0bd3 163f 5389 cb39 9bf1 203f
00000070: d82b 273e 6e81 b63e 6e0c 2f3f 3a93 f13e
0.48749852 0.6421255 0.32359165 0.47275412 0.5285919 0.54418033 0.3930129 0.52312094
0.68893474 0.5781021 0.3478761 0.468355 0.5181273 0.48136222 0.49801216 0.42890579
0.50971186 0.6029609 0.48915213 0.5246392 0.43467426 0.4831319 0.56267136 0.4785527
0.37777445 0.58915776 0.00038821492 0.6286866 0.16325319 0.35645622 0.6837834 0.47182637

MLP.6.bias f4 [32]
00000000: 6683 953b fa37 a7bc 754d b2bb a018 313b
00000010: 6d02 18bd be33 afbb ffda 4b3b ca71 bebc
00000020: a813 5bbb cd3f 053c 5f42 9dbb 2afc ad3b
00000030: 0c07 c6bc d90a de3b 7285 673c a26b 1e3b
00000040: 0bfa 4e3b 0fe4 d0bc 9c58 bc3b 6fdd 02bc
00000050: f311 853a 9f5f 1e3b 58a1 093b 8be2 e83a
00000060: a45a 8e3c 8c8b 4cbb d6ca 1bbc 4a3a 5abc
00000070: 46aa 683c dfb6 1dbc c57e b73c db0f 9b3c
0.004562783 -0.020412434 -0.0054413625 0.0027022734 -0.03711169 -0.0053467443 0.0031105874 -0.023247618
-0.0033428464 0.008132887 -0.004799172 0.0053096013 -0.024173282 0.0067761955 0.014130937 0.002417304
0.0031582143 -0.025499372 0.0057478677 -0.007987364 0.0010152444 0.0024165881 0.002100071 0.001776771
0.017377205 -0.0031211106 -0.009508809 -0.013319561 0.014200753 -0.009626119 0.022399316 0.018928459

MLP.8.weight f4 [32, 32]
00000000: 767d a3bd 6e34 91bd 5986 13bb 62a3 a3bc
00000010: e1cd 663d 2d26 abbd eb31 2c3c 8fdf 4ebd
00000020: 2e75 2abe 71f0 873d 7eb4 dc3d 6081 d2bd
00000030: 2c28 a93b e6c4 0c3e a363 c93d 6a0b 6ebb
00000040: d7ab fb3c 4939 173e 4230 61bd ce13 efbd
00000050: e3f9 db3c 8ea4 e3bd c9f2 363d d708 c5bc
00000060: 0ada 9dbd 41a4 a13c 7b26 d5bc 8072 8a3d
00000070: 8cc8 1f3d e1c5 cbbd 5f1d d3bd 18b9 503d
00000080: 42c1 bebc 4292 f53c ac1c 023d f8f7 633d
00000090: 0bb2 f3bc 6369 913d aa75 f1ba 5849 0abd
000000a0: e08d 093b 157a 153d bff3 703b 9f5c 36bc
000000b0: 7ad3 6dbd 9763 ebbb df94 51bd 40bf a0bb
000000c0: fc26 69bd 8c57 8fbd 6464 9b3c 441a 42bd
000000d0: 21fd 57bd ac52 0dbd 67c9 a03b acbe e63c
000000e0: a2c8 07bd b888 1c3d 80dc a5b9 90c4 fc3c
000000f0: cd2f a13b 31c7 0b3b f4ae 8cbb e926 883b
00000100: 19e7 053c 10aa 673d 423a 573d b8df 443d
00000110: a405 7bbd 1746 f53d 7411 89bd 2c09 3bbd
00000120: 33b3 873d 71be 473d f521 94bc 7f22 98bb
00000130: 07c0 52bd 21bc 67bd 036e 963c 8355 523c
00000140: 2a56 1abc eeef 85bd 1fcf e53c 9f1d b1bc
00000150: 7245 033d 277e 7ebd eaca 72bc 47f5 803d
00000160: 770a 18bd 86ec 18bc 95d5 60b9 279d 7e3c
00000170: 0110 21bc 7aec 99bb 9c57 1fbd a17e 0e3d
00000180: 625f 323d 8051 1f3d c6cf 2abd 2131 c5bc
00000190: afd4 f03c f9cd 70bc e4cd 19bd d65b 1c3d
000001a0: bd7b 8bbd 3b66 13bd 8c16 183d da68 eebc
000001b0: abf8 a43d 4794 2abd e6f0 21bc d245 513d
000001c0: f121 e6bc 2bfe b53c 02b6 82bd 4e3b b8bd
000001d0: 985e 93bd 678d 073c ae7d b0bd d41e d3bc
000001e0: bc46 813a e9a1 96bd 8997 a0b9 4a2c 03bd
000001f0: 37a6 cc3b 4488 b8bc 0884 213d 4540 963d
00000200: 7f9a cfbb bdbc 1fbd e49c f63b 117f a33a
00000210: 191c d53a 050a 3c3c 510f 2338 3753 f43b
00000220: a50f 56bc 6bd2 d4ba e7ff b3ba f6a7 d4bc
00000230: b6fe 5dbb d32a cdbc 41de 1cbc cb86 96bb
00000240: 4faa 36bb 838e 743c caf4 2b3c 1d2f 52bb
00000250: d653 203a 484e fcba cc49 f43b 1ac0 d73b
00000260: 858e fdbb 4f2d 5cbc 0bdf 2e37 4fde 803b
00000270: 7ed7 84ba 14af f339 4cd5 0cbb fb35 e8bb
00000280: 773b a43d 8003 49bd 111f ab3a 01b0 80bd
00000290: 356b 223e b3db b8bc 980d 453d 6401 5dbd
000002a0: ad80 ff3d 2db9 83bd a6b2 25bd eb88 cfbd
000002b0: b604 943d afe2 973d a4bb e3bd 2ef1 033d
000002c0: 67cf 16be d6c0 afb9 15af 47be d469 0abd
000002d0: e090 163d c30b fbbd f6ae 8dbd a2bd 63bd
000002e0: 2fed ca3d 5558 7ebd 04be 4e3a 02d6 70bc
000002f0: 80be 57bc 9202 553b ece8 d63d d4e9 f5bc
00000300: f005 1381 d4ac 7901 7d0c 6281 10da 7701
00000310: cb8e b401 d0dd 8080 eb74 5c81 c6dd c500
00000320: c889 c481 6e72 5801 9d11 fb00 7e02 db01
00000330: 7699 9c01 5d54 1800 c28b 8280 947d 0780
00000340: 801c 1201 379c 3701 0849 bb80 acd9 3a80
00000350: bf7b c880 97d7 1180 7a29 1901 7b5d 7680
00000360: 207e cf00 46d8 3e81 5905 0201 d446 1d01
00000370: 7cf7 ad01 8784 cd01 5895 0d81 16dc bb80
00000380: d5a6 f03c 923e 0c3c ecf2 ba39 ff84 3f3c
00000390: cc17 1a3d b07a 3c3d c21e f0bc a70c 453a
000003a0: eccf 163d c936 bd3c 677e ceba 654e cdbb
000003b0: 199f 963a c54e f0bc 2650 ba3c 7ef7 ab3c
000003c0: fa55 94bb 14f1 553c 695f 33bb aacc bf3b
000003d0: 8a48 a63c 45d1 fe3b cea0 1e3d 5db7 f03b
000003e0: 16fe 03bc a6f3 03bd 8787 25b9 61c6 b2bc
000003f0: b13c c8bb 6099 c1b7 5cdc bebb 13ae 763d
-0.07982914 -0.07090078 -0.0022510497 -0.019975368 0.056348685 -0.08356891 0.010509948 -0.05050617
-0.16646263 0.066376574 0.10776614 -0.102785826 0.0051622596 0.13746986 0.09833457 -0.0036322721
0.030721588 0.14767946 -0.054977663 -0.11673699 0.026852554 -0.11115371 0.04466513 -0.024052067
-0.07707603 0.019731643 -0.026019325 0.067601204 0.039009616 -0.09949852 -0.103083365 0.05095777
-0.023285512 0.029976968 0.031765625 0.055656403 -0.029747983 0.07100179 -0.0018421907 -0.033761352
0.0020989105 0.03649338 0.0036766378 -0.011130481 -0.058063008 -0.007183503 -0.051167365 -0.0049056113
-0.056921944 -0.0699912 0.018968768 -0.04738833 -0.052731637 -0.03450267 0.0049068215 0.028167091
-0.033150323 0.038216323 -0.00031635538 0.030855447 0.0049190284 0.0021328444 -0.004293317 0.004155029
0.008172774 0.05655867 0.052545793 0.048064917 -0.061284676 0.11976259 -0.06692782 -0.045663044
0.066259764 0.048765603 -0.018082598 -0.004642784 -0.051452663 -0.056575898 0.018363005 0.01283777
-0.009419957 -0.065399036 0.028052865 -0.02162057 0.03204865 -0.062132027 -0.014818886 0.06296783
-0.037119355 -0.009333735 -0.0002144187 0.015540398 -0.009830476 -0.0046973797 -0.03890191 0.03478873
0.043547995 0.038896084 -0.041702054 -0.024071278 0.02939829 -0.014697545 -0.03754987 0.03817352
-0.068107106 -0.035986166 0.037130877 -0.029102731 0.08055242 -0.041645315 -0.009884095 0.051091976
-0.028092356 0.022215923 -0.063823715 -0.089956865 -0.07195777 0.008273459 -0.086177215 -0.025771536
0.0009863 -0.07355101 -0.0003063048 -0.03202466 0.0062454003 -0.022525914 0.039432555 0.07336477
-0.006335556 -0.038998354 0.007526027 0.0012473782 0.0016258984 0.011476998 3.8876493e-05 0.007456209
-0.013065253 -0.0016237026 -0.0013732881 -0.025958996 -0.0033873743 -0.025044834 -0.009574474 -0.0045937053
-0.0027872508 0.014926556 0.010495374 -0.0032071539 0.0006116008 -0.0019249404 0.0074550863 0.0065841796
-0.007737937 -0.013438537 1.0423139e-05 0.0039327512 -0.0010135022 0.00046479015 -0.002148944 -0.007086513
0.080191545 -0.049075603 0.0013055523 -0.0628357 0.15861209 -0.022565698 0.048108667 -0.053956404
0.12475715 -0.06431804 -0.040453576 -0.10133537 0.07227461 0.07416283 -0.11119774 0.03221243
-0.14727555 -0.00033522275 -0.19500382 -0.03379233 0.036759257 -0.12258103 -0.06918137 -0.05560077
0.099085204 -0.06209596 0.0007886591 -0.014699461 -0.013167977 0.0032502753 0.10493645 -0.030018725
-2.7003896e-38 4.5858075e-38 -4.1518604e-38 4.5523187e-38 6.6326455e-38 -1.1834515e-38 -4.0491503e-38 1.817115e-38
-7.2196735e-38 3.9755034e-38 2.3057028e-38 8.045147e-38 5.7525555e-38 2.234316e-39 -1.198875e-38 -6.87897e-40
2.6836413e-38 3.372387e-38 -1.7199436e-38 -5.404545e-39 -1.8411491e-38 -1.638542e-39 2.813142e-38 -1.0870123e-38
1.9055193e-38 -3.5052657e-38 2.3881066e-38 2.8887162e-38 6.3905286e-38 7.5495274e-38 -2.600476e-38 -1.725219e-38
0.029376427 0.00855984 0.00035657675 0.011689424 0.03762035 0.04601544 -0.029311541 0.0007516839
0.036819384 0.023097413 -0.0015754224 -0.006265449 0.0011491507 -0.029334435 0.022743296 0.020992037
-0.004526851 0.013057966 -0.0027370101 0.0058532553 0.020298261 0.0077764117 0.038727574 0.0073460774
-0.008056184 -0.032214783 -0.00015786114 -0.02182311 -0.0061107506 -2.3078814e-05 -0.0058246087 0.060224604

MLP.8.bias f4 [32]
00000000: e747 64bc 8436 0a3c 37d9 833c ccfc 37bc
00000010: 199e e1bc 0676 053e 60a1 b181 5980 60bb
00000020: d9dd d9bc 0e2b ee3d 8abd 7382 3c77 f9bb
00000030: 8c4c 103e ad9a 1a3e 0996 2682 ba21 133e
00000040: c28a 9e82 5303 85bd e91d a2bb ebeb 1b3c
00000050: d1d1 3e3d ea5a d23d 77df 043d 4d65 013e
00000060: cd9c 1b3d 6ad9 543d cf1e cc3c 1660 973c
00000070: 31b3 96bd 30fb cd3d c2d1 ddbb f1cb d582
-0.0139331585 0.008435849 0.016094787 -0.011229705 -0.027541207 0.13033304 -6.5251093e-38 -0.0034256189
-0.026595043 0.11629306 -1.7907215e-37 -0.007613091 0.140917 0.15098067 -1.2238812e-37 0.14368334
-2.3295657e-37 -0.06494775 -0.004947413 0.009516696 0.046586815 0.10271247 0.032439675 0.126363
0.037991334 0.051965155 0.024917034 0.018478435 -0.07358397 0.10057676 -0.00676939 -3.1414594e-37

MLP.10.weight f4 [32, 32]
00000000: d274 c03d 5c4b 4ebd a2b4 68bd b7dc a33c
00000010: fa23 05bc 9d37 963d 8afe 9581 b418 23bc
00000020: 4907 90ba 8c27 8d3c 0878 5482 1177 9c3d
00000030: a9ae 323c 4262 f5bc b9e8 4181 9706 39bd
00000040: 62c8 5d00 fd7f ba3c e830 7e39 cc54 98bc
00000050: d358 7d3d 2f24 063d 7ed0 7abd 2e01 5f3d
00000060: 5b7a 41bd 29de 0c3c 72e6 b3bc 683c fabc
00000070: 93cb e0bd cb8b 073d 73ba 04bd 5e23 4d01
00000080: c8ef 1d3e ec31 22ba 5b32 323d e497 52bd
00000090: 0352 be3a 81b9 153e 9dfa ad01 d3fc ca3c
000000a0: fb80 36bd 9da3 63bd 4663 3d82 9453 11be
000000b0: b5b7 b93d c67b acbc 5e65 8f02 f92c 043e
000000c0: 54c8 a282 70eb 03be 7f34 3cbb 50b5 4b3c
000000d0: 6f59 87bd 02d4 e33c a6fd 453d 40ac e8bd
000000e0: 280f f93c 4ac4 32bd 9fc6 4f3c 784e ecbc
000000f0: 7206 4dbd c5bb 943d 889a 5e3d 4bb9 ef00
00000100: b4a1 3f3e 9663 613b 6e2e 363d cda8 02bd
00000110: 0f07 833a 764a 083e 62da ea01 0be6 0c3d
00000120: 7fbf 553d 1b17 d3bd 6807 ad81 1d24 10be
00000130: b470 f83c b02a b2bd c4d0 1b82 bc2b ce3d
00000140: f1fa 5c01 8b1f 103c dbc2 54bb 2e24 9d3d
00000150: 567c f4bd 8bb0 fc3c e149 0dbe fbc2 a93d
00000160: 9c19 0b3d 06f8 993c b2b6 463d ad4f 453d
00000170: c650 23bd 529f 843c c7fa 343d eed4 d001
00000180: 3ed1 1cbe 0cdf 9e3c ae6a 353c d81f 83bd
00000190: 7aeb 96bb 1a09 0fbe 0ab2 d381 1733 393b
000001a0: 93aa e7bd e8c1 48bd 32de 9702 0a52 d33d
000001b0: 53b5 813d e598 6b3c e242 5281 d7a2 28be
000001c0: 74bb 3400 ba9f 71bd 6a3c e3ba f4e0 68bc
000001d0: bf1c 2abc 58db 48bc dff6 c63d 6c6b 3d3c
000001e0: 0186 96bb 6a80 0b3e 20ed d63d 5660 5f3b
000001f0: bc7b 9ebd a7ba 7fbc 4a5a 863c 4cd9 0a03
00000200: 391b ab3c bcdf c43c 3d96 e53c cce9 cb3b
00000210: d620 6c3c 0c38 463d fc93 6600 3fd4 c53c
00000220: fac6 0a3d d53e e03d 17d0 4282 609d fb3c
00000230: 63fd 2f3e ac14 23be 59b6 8982 a815 b9bc
00000240: 032f 1400 1050 98bc f24b e8bb 48b4 bf3c
00000250: 2954 bdba 1e30 353d f192 063e c073 043e
00000260: 5bfa aa3c d118 0f3d 918e 233c 4c8c 1d3d
00000270: 3f02 0d3e f279 5f3d 741b 9e3d 0487 be81
00000280: 6093 963d 661c 1bbc 7997 d0bc a740 9dba
00000290: 4b00 ee3a 83db cabc 001f 4300 a5f3 b9bb
000002a0: fcb5 34bb 816f 56bd 16fe ea02 a6cc 43bc
000002b0: 3e39 2d3d 234c 8f3c 8a44 aa01 7b74 7bbc
000002c0: 5a08 e081 975d 54bb d6c9 c9ba 6126 8d3b
000002d0: a727 83bd 8b90 33bb 53c5 e9ba 615d 87bb
000002e0: b31e 91bc 6a64 febb 9bd8 c73b 472f 8138
000002f0: 5ac9 f9ba 3855 b0bb 20e9 a1bb 4b5e 2a01
00000300: c854 b23c 4299 a93c 7d54 493c a473 cabc
00000310: 4fbf b23b a25a 4fbd 129a 9401 eaa2 2e3c
00000320: e756 20bd 27ce bdbd ff48 0e82 c65c 9cbc
00000330: 3c7d 83bc 80f4 f63d a779 8782 2f91 27be
00000340: 699f 8802 ab01 803c 53dd 2a3b acd7 243d
00000350: 4bee 25be f9f8 bbbd 8edd 9a3d 7ff2 f2bc
00000360: c77d 0f3d 9afd d9bd c088 0cbe 93ee 9a3c
00000370: c7ac 093e a045 fabb 25d0 36bd 528c dc82
00000380: 4835 99bb 7a3b ccbc c3f9 683d 06d5 883d
00000390: 6b25 afbc 1136 fabc 0d65 4081 1ab7 fbbc
000003a0: d101 81bd c7da bdbd 8a8f 8102 dd6e c63d
000003b0: aa48 023e 61ef f5bd 7c04 3202 349e 393e
000003c0: 2051 5981 0814 2cbd 60dc d239 00f0 8ebb
000003d0: c1d8 343d dda5 123e 237f 8cbb 9af9 a53c
000003e0: 1324 153d 9273 ac3d 04fc 803d 23c1 a93d
000003f0: a3f1 0b3e f332 b03d 9614 463d 95f5 e102
0.09397282 -0.050364837 -0.05681289 0.020002706 -0.008126253 0.07334826 -5.50992e-38 -0.00995462
-0.0010988499 0.017230771 -1.5609747e-37 0.076398976 0.0109059 -0.02995408 -3.5615472e-38 -0.0451723
8.612585e-39 0.022766108 0.00024241547 -0.018595122 0.061852288 0.03274935 -0.06123399 0.054444484
-0.047235828 0.008597889 -0.02196047 -0.030546382 -0.10976329 0.0330923 -0.032404374 3.7677928e-38
0.154235 -0.00061872485 0.043505054 -0.051414385 0.0014520291 0.14621545 6.3909776e-38 0.02477876
-0.0445566 -0.055575956 -1.3914017e-37 -0.14192039 0.090682425 -0.021055114 2.1070143e-37 0.1290778
-2.3918743e-37 -0.12882781 -0.0028717814 0.012433365 -0.06608855 0.027811054 0.0483376 -0.11360979
0.030402735 -0.043644227 0.012681632 -0.02884601 -0.050054975 0.07262377 0.05434659 2.2015154e-38
0.18714029 0.0034391633 0.044477873 -0.031899262 0.000999661 0.13309655 8.627139e-38 0.034399074
0.052184578 -0.103071414 -6.356079e-38 -0.14076276 0.030327179 -0.08699548 -1.1447514e-37 0.100669354
4.058766e-38 0.008796583 -0.0032464776 0.07672916 -0.11937778 0.030845901 -0.13797714 0.08289143
0.03395997 0.018795025 0.048514076 0.048171688 -0.039871953 0.016189251 0.044184472 7.671267e-38
-0.15314195 0.019393466 0.011072798 -0.06402558 -0.0046057077 -0.13968316 -7.776463e-38 0.0028259212
-0.11311831 -0.04901305 2.231499e-37 0.10318382 0.06333413 0.014379715 -3.8618894e-38 -0.16468368
4.842691e-39 -0.058990218 -0.001733673 -0.014213789 -0.01038283 -0.012259327 0.09715056 0.011561256
-0.004593611 0.13623205 0.10494447 0.003408452 -0.07738444 -0.015608466 0.016400475 4.0804e-37
0.020887004 0.024032466 0.02802574 0.006222939 0.014412126 0.048393294 9.420307e-39 0.024149058
0.033881165 0.10949484 -1.4312588e-37 0.03071469 0.17186503 -0.15925854 -2.0235003e-37 -0.022593334
1.853575e-39 -0.018592864 -0.0070891315 0.023401394 -0.0014444637 0.04423534 0.13141991 0.1293478
0.020871332 0.034935776 0.009982721 0.038463876 0.13770388 0.054559655 0.0772008 -6.9988715e-38
0.07352328 -0.00946722 -0.025462853 -0.0011997417 0.0018158046 -0.024762874 6.164099e-39 -0.0056747966
-0.0027574291 -0.052352432 3.4529048e-37 -0.011950647 0.04229092 0.01749236 6.2546486e-38 -0.015347595
-8.229659e-38 -0.0032404417 -0.0015395235 0.0043075536 -0.064040475 -0.0027399387 -0.0017835296 -0.0041310047
-0.017714834 -0.007763435 0.0060988194 6.1600054e-05 -0.00190572 -0.0053812526 -0.0049411207 3.129172e-38
0.021768942 0.020702962 0.01228821 -0.024713345 0.0054549347 -0.050623544 5.4587694e-38 0.010658959
-0.039145377 -0.09267836 -1.0453461e-37 -0.019087207 -0.016050927 0.120583534 -1.9906292e-37 -0.16363977
2.00749e-37 0.015625795 0.002607186 0.040244743 -0.16204183 -0.09178347 0.075617895 -0.029656647
0.03503206 -0.10644074 -0.13724041 0.01891259 0.13444816 -0.0076376945 -0.044632096 -3.2406635e-37
-0.004675541 -0.024930704 0.056878816 0.06681256 -0.021380147 -0.030543359 -3.533733e-38 -0.030726958
-0.062991746 -0.09270244 1.9037234e-37 0.09689114 0.12723032 -0.120085485 1.3078662e-37 0.18126756
-3.991481e-38 -0.04201129 0.00040218513 -0.0043621063 0.044152025 0.14321084 -0.004287617 0.02026062
0.036411356 0.08420481 0.06298068 0.08288791 0.13666396 0.08603468 0.048359476 3.3201736e-37

MLP.10.bias f4 [32]
00000000: 3ff4 a23d 318e c6bd d5cb adbd cf7d 2c3d
00000010: b007 a1bd a119 ed3c 8555 293d 1767 0abe
00000020: d5e6 1bbc d8c0 8c3d 575c 26bd e2ff 50bd
00000030: 7566 09bd c048 d4bc f63a 9d3d b728 eabb
00000040: 8e78 403d c62d f0bd 5f00 af3d 46dd a03d
00000050: 1a00 da3b 4a78 ac3d 8d44 a13d d967 a8bd
00000060: db9e cdbd 811c 693d b235 503d b267 b13d
00000070: 6ae6 e9bc 2cc0 413d 2622 f73c 25ce 203c
0.079567425 -0.096950896 -0.084861435 0.042112168 -0.078627944 0.028942885 0.041341323 -0.13515888
-0.009515484 0.068727195 -0.040615406 -0.05102528 -0.033544976 -0.025913596 0.076772615 -0.007145967
0.04698997 -0.117274806 0.08544993 0.078547046 0.006652844 0.08421381 0.07874403 -0.08222932
-0.10040065 0.05691195 0.050832458 0.086623564 -0.028552253 0.04730241 0.03016765 0.009814774

MLP.11.weight f4 [32]
00000000: a5d5 073f 3b18 0b3f 4494 183f e8cf 2b3f
00000010: aff4 273f e372 4b34 81cf 153f e8f5 383f
00000020: c689 293f 01c8 e83e c872 d83e 99c0 1e3f
00000030: 2c76 bf3e 2e00 213f 5ec7 393f 19df ac3e
00000040: 31b9 163f 9497 2d3f bd8f 0a3f e01b 123f
00000050: ec4d 373f bd57 183f 3bb6 043f ba03 0d3f
00000060: faf8 383f ef3e 193f bd52 183f 1eb1 143f
00000070: 684c 133f ffdd 023f 311b c33e 755b 313f
0.5306037 0.5433385 0.59601235 0.67114115 0.6560773 1.8947644e-07 0.5851975 0.72250223
0.6622585 0.4546509 0.4227507 0.6201263 0.37394845 0.628909 0.72569835 0.3376396
0.5887633 0.67809415 0.5412558 0.57073784 0.71603274 0.5950888 0.5184056 0.5508381
0.7225491 0.59861654 0.5950125 0.5808276 0.5753846 0.5111999 0.38106683 0.6928018

MLP.11.bias f4 [32]
00000000: 1425 433c e1d4 253b ac38 7ebb ba88 8fbc
00000010: b5ab e93c 21d5 4c34 7ba2 70bc 36b1 3a3c
00000020: 1ea7 983b 631b babc 3fa9 d23c c594 8b3c
00000030: 288b 9b3b 02a1 b238 6592 e4bb 813c 0d3d
00000040: d761 7bbc 5008 c0bb 14bf e13c 2759 00bd
00000050: 1d8d 34bc e33c 6dbc c291 52bc 0389 96bc
00000060: 9efa 84bc 272a a23c 69bf f3bc f839 2a3a
00000070: e059 0a3c 9b63 96bc 3e00 3bbd 9ae7 15bd
0.011910696 0.0025303888 -0.0038791103 -0.017521251 0.02852426 1.9076516e-07 -0.014687176 0.011394789
0.004658594 -0.022718137 0.025715468 0.017038712 0.0047468133 8.5176915e-05 -0.0069754594 0.03448153
-0.015343151 -0.005860366 0.027556933 -0.031335022 -0.011019972 -0.014479849 -0.012852134 -0.01837588
-0.016232785 0.01979549 -0.029754357 0.00064936234 0.008444279 -0.018358042 -0.045654528 -0.036597826

MLP.13.weight f4 [4, 32]
00000000: 998e babd fb79 c9b9 d245 383c e28f 3bbe
00000010: d526 cc3d 8a27 25b4 934f c2bc bc85 abbd
00000020: 90e4 10be eae4 df3c 48dc ef3c 2e68 36be
00000030: c41e a9bd b095 d53d 5d22 3ebe 4b55 2e3d
00000040: 95d4 8f3d 39be 20be f674 93bd 461d 1bbe
00000050: b484 71bd 98d6 14bd 7f91 fc3b 37d0 a9bd
00000060: d883 32be b33a 113e 922a a6bd 8402 283e
00000070: 930c 8f3d a59c 983b 0761 0abc c52a 10be
00000080: 21a8 a33d e41c 563e f18b 0c3e fec9 65bd
00000090: 51b9 273e bc2a 5535 cdfe 53be 5b2f 4a3e
000000a0: ca4c 8c3d a922 8d3d 6f2f 013e ac14 2abc
000000b0: 71c7 2c3e a27d 04bd caa2 2bb9 3970 e53d
000000c0: d53f bebd f3b9 b43d b737 9e3d 95fb b2bc
000000d0: d4b9 48be cf48 60be ce42 f8bd c13a 2cbe
000000e0: 671a 0bbd 4ef8 2d3c fa90 3f3c 03ec 00be
000000f0: 6e33 79be 7e6f 4fbe 8634 9cbd 626a c2bd
00000100: 1a2f d7bc c2b8 f5bd b090 d6bd 0e05 413e
00000110: 66e9 013e dbce 22b5 a1ad adbd 0b2e e8bd
00000120: 5b36 2c3e ff85 dabd 5aa3 083d 0a50 ea3d
00000130: 4473 b0bc 7f1c 20be 7191 e53d 8288 9fbd
00000140: cfd0 09be c734 18be fdd3 ec3d 1b0e 1dbd
00000150: c41e 90bd b598 703b d045 3abc f340 fd3d
00000160: 2a56 253e d34b 863d 9e16 f5bd c2c8 17bd
00000170: 0f55 42bc 685f 8ebd 1ced 3cbd ab6f 25be
00000180: ae13 a73d e4a0 95bd 2697 47be 3383 f7bd
00000190: f7df c5bd b119 b635 93c8 02be f3cb 8d3e
000001a0: 197e 0fbe fa24 f3bd f518 9dbd d784 513e
000001b0: c79f 9c3d d4f7 7e3e 9bae 133e 29d5 2f3d
000001c0: 750d 2ebd a8f5 2a3c a994 283e a335 31be
000001d0: ac5d 9c3e a923 153e 0c0b 213e 86d7 04be
000001e0: df1d 37bd f68c f9bd f84f 75be 8afe 48bd
000001f0: d5b2 c6bd fa14 a0ba e7ee fbbd 3213 f0bb
-0.091092296 -0.0003842859 0.011247115 -0.18316606 0.09968344 -1.5381207e-07 -0.023719585 -0.08375117
-0.1414969 0.027330834 0.029279843 -0.17813179 -0.08257821 0.10428941 -0.18567796 0.04256181
0.07022969 -0.15697564 -0.07200043 -0.15147886 -0.058964446 -0.036337465 0.007707774 -0.08291667
-0.17433107 0.14182548 -0.081135884 0.1640721 0.0698482 0.0046573454 -0.008445985 -0.14078815
0.079910524 0.20909458 0.13725258 -0.056100838 0.16379286 7.941087e-07 -0.20702668 0.19744627
0.06850584 0.068913765 0.1261575 -0.010380905 0.16872956 -0.032346375 -0.00016368474 0.112030454
-0.09289519 0.088245295 0.077254705 -0.02184848 -0.19602138 -0.21902774 -0.12122117 -0.16819288
-0.033960726 0.0106182825 0.01169228 -0.12590031 -0.24336025 -0.20257375 -0.076272056 -0.09492947
-0.026267577 -0.119981304 -0.10476816 0.18849584 0.1268669 -6.065072e-07 -0.08480383 -0.11336907
0.1681761 -0.10670089 0.03335891 0.114410475 -0.021539338 -0.1563587 0.11209381 -0.07789709
-0.1345856 -0.14863883 0.11563871 -0.03834353 -0.07037118 0.0036712114 -0.011369184 0.12365904
0.1614615 0.06557431 -0.119672045 -0.037056692 -0.0118611 -0.06951791 -0.046124563 -0.16155879
0.081580505 -0.07306078 -0.19491252 -0.12085571 -0.096618585 1.3567534e-06 -0.12771825 0.27694663
-0.14012946 -0.11872287 -0.07670776 0.2046083 0.076476626 0.24899226 0.14422075 0.042927895
-0.042493302 0.010434546 0.1646296 -0.17305617 0.30540216 0.14564385 0.1572687 -0.1297284
-0.04470622 -0.12185089 -0.23956287 -0.049070872 -0.09702078 -0.0012213283 -0.123014264 -0.007326507

MLP.13.bias f4 [4]
00000000: d6cd e1bc 3737 8e3d 22b5 05bc ead5 a8bb
-0.02756397 0.06944125 -0.008160861 -0.0051524537
